…
[[3.05757414e+01 5.36054544e+01 3.86700000e+03]
 [5.82851504e+01 3.73355222e+01 4.07600000e+04]
 [6.28855568e+01 3.78928083e+01 3.53750000e+04]
 ...
 [9.06849563e+00 5.11460970e+01 9.90100000e+03]
 [3.29253557e+01 5.47534622e+01 8.86100000e+03]
 [6.11433546e+01 3.80293684e+01 3.97470000e+04]]
Getting travaltes
Done
Batches up to 202 already run. Starting from there...

Processing batch 203
Model: "sequential"
_________________________________________________________________
Layer (type)                 Output Shape              Param #   
=================================================================
normalization (Normalization (None, 1344)              0         
_________________________________________________________________
dense (Dense)                (None, 256)               344320    
_________________________________________________________________
batch_normalization (BatchNo (None, 256)               1024      
_________________________________________________________________
activation (Activation)      (None, 256)               0         
_________________________________________________________________
dense_1 (Dense)              (None, 256)               65792     
_________________________________________________________________
batch_normalization_1 (Batch (None, 256)               1024      
_________________________________________________________________
activation_1 (Activation)    (None, 256)               0         
_________________________________________________________________
dense_2 (Dense)              (None, 256)               65792     
_________________________________________________________________
batch_normalization_2 (Batch (None, 256)               1024      
_________________________________________________________________
activation_2 (Activation)    (None, 256)               0         
_________________________________________________________________
dense_3 (Dense)              (None, 256)               65792     
_________________________________________________________________
batch_normalization_3 (Batch (None, 256)               1024      
_________________________________________________________________
activation_3 (Activation)    (None, 256)               0         
_________________________________________________________________
dense_4 (Dense)              (None, 256)               65792     
_________________________________________________________________
batch_normalization_4 (Batch (None, 256)               1024      
_________________________________________________________________
activation_4 (Activation)    (None, 256)               0         
_________________________________________________________________
dropout (Dropout)            (None, 256)               0         
_________________________________________________________________
dense_5 (Dense)              (None, 256)               65792     
_________________________________________________________________
batch_normalization_5 (Batch (None, 256)               1024      
_________________________________________________________________
activation_5 (Activation)    (None, 256)               0         
_________________________________________________________________
dense_6 (Dense)              (None, 256)               65792     
_________________________________________________________________
batch_normalization_6 (Batch (None, 256)               1024      
_________________________________________________________________
activation_6 (Activation)    (None, 256)               0         
_________________________________________________________________
dense_7 (Dense)              (None, 256)               65792     
_________________________________________________________________
batch_normalization_7 (Batch (None, 256)               1024      
_________________________________________________________________
activation_7 (Activation)    (None, 256)               0         
_________________________________________________________________
dense_8 (Dense)              (None, 256)               65792     
_________________________________________________________________
batch_normalization_8 (Batch (None, 256)               1024      
_________________________________________________________________
activation_8 (Activation)    (None, 256)               0         
_________________________________________________________________
dense_9 (Dense)              (None, 256)               65792     
_________________________________________________________________
batch_normalization_9 (Batch (None, 256)               1024      
_________________________________________________________________
activation_9 (Activation)    (None, 256)               0         
_________________________________________________________________
dense_10 (Dense)             (None, 3)                 771       
_________________________________________________________________
dense_11 (Dense)             (None, 3)                 12        
=================================================================
Total params: 947,471
Trainable params: 942,351
Non-trainable params: 5,120
_________________________________________________________________
Restoring model weights from the end of the best epoch.
Epoch 00261: early stopping
2.410304609934489 min
Processing batch 204
Restoring model weights from the end of the best epoch.
Epoch 00275: early stopping
…
